{"config": [{"config": {"dtype": "float32", "kernel_constraint": null, "use_bias": true, "kernel_regularizer": {"config": {"l1": 0.0, "l2": 0.0005000000237487257}, "class_name": "L1L2"}, "kernel_initializer": {"config": {"mode": "fan_avg", "scale": 1.0, "seed": null, "distribution": "uniform"}, "class_name": "VarianceScaling"}, "batch_input_shape": [null, 32, 32, 3], "activation": "linear", "name": "conv2d_1", "bias_constraint": null, "activity_regularizer": null, "bias_regularizer": null, "padding": "same", "dilation_rate": [1, 1], "strides": [1, 1], "filters": 64, "trainable": true, "data_format": "channels_last", "kernel_size": [3, 3], "bias_initializer": {"config": {}, "class_name": "Zeros"}}, "class_name": "Conv2D"}, {"config": {"trainable": true, "activation": "relu", "name": "activation_1"}, "class_name": "Activation"}, {"config": {"center": true, "gamma_regularizer": null, "epsilon": 0.001, "beta_constraint": null, "scale": true, "name": "batch_normalization_1", "momentum": 0.99, "gamma_initializer": {"config": {}, "class_name": "Ones"}, "moving_variance_initializer": {"config": {}, "class_name": "Ones"}, "beta_regularizer": null, "gamma_constraint": null, "beta_initializer": {"config": {}, "class_name": "Zeros"}, "trainable": true, "moving_mean_initializer": {"config": {}, "class_name": "Zeros"}, "axis": -1}, "class_name": "BatchNormalization"}, {"config": {"rate": 0.3, "trainable": true, "name": "dropout_1"}, "class_name": "Dropout"}, {"config": {"kernel_constraint": null, "padding": "same", "kernel_regularizer": {"config": {"l1": 0.0, "l2": 0.0005000000237487257}, "class_name": "L1L2"}, "kernel_initializer": {"config": {"mode": "fan_avg", "scale": 1.0, "seed": null, "distribution": "uniform"}, "class_name": "VarianceScaling"}, "activation": "linear", "name": "conv2d_2", "bias_constraint": null, "activity_regularizer": null, "bias_regularizer": null, "use_bias": true, "dilation_rate": [1, 1], "strides": [1, 1], "filters": 64, "trainable": true, "data_format": "channels_last", "kernel_size": [3, 3], "bias_initializer": {"config": {}, "class_name": "Zeros"}}, "class_name": "Conv2D"}, {"config": {"trainable": true, "activation": "relu", "name": "activation_2"}, "class_name": "Activation"}, {"config": {"center": true, "gamma_regularizer": null, "epsilon": 0.001, "beta_constraint": null, "scale": true, "name": "batch_normalization_2", "momentum": 0.99, "gamma_initializer": {"config": {}, "class_name": "Ones"}, "moving_variance_initializer": {"config": {}, "class_name": "Ones"}, "beta_regularizer": null, "gamma_constraint": null, "beta_initializer": {"config": {}, "class_name": "Zeros"}, "trainable": true, "moving_mean_initializer": {"config": {}, "class_name": "Zeros"}, "axis": -1}, "class_name": "BatchNormalization"}, {"config": {"pool_size": [2, 2], "padding": "valid", "strides": [2, 2], "trainable": true, "data_format": "channels_last", "name": "max_pooling2d_1"}, "class_name": "MaxPooling2D"}, {"config": {"kernel_constraint": null, "padding": "same", "kernel_regularizer": {"config": {"l1": 0.0, "l2": 0.0005000000237487257}, "class_name": "L1L2"}, "kernel_initializer": {"config": {"mode": "fan_avg", "scale": 1.0, "seed": null, "distribution": "uniform"}, "class_name": "VarianceScaling"}, "activation": "linear", "name": "conv2d_3", "bias_constraint": null, "activity_regularizer": null, "bias_regularizer": null, "use_bias": true, "dilation_rate": [1, 1], "strides": [1, 1], "filters": 128, "trainable": true, "data_format": "channels_last", "kernel_size": [3, 3], "bias_initializer": {"config": {}, "class_name": "Zeros"}}, "class_name": "Conv2D"}, {"config": {"trainable": true, "activation": "relu", "name": "activation_3"}, "class_name": "Activation"}, {"config": {"center": true, "gamma_regularizer": null, "epsilon": 0.001, "beta_constraint": null, "scale": true, "name": "batch_normalization_3", "momentum": 0.99, "gamma_initializer": {"config": {}, "class_name": "Ones"}, "moving_variance_initializer": {"config": {}, "class_name": "Ones"}, "beta_regularizer": null, "gamma_constraint": null, "beta_initializer": {"config": {}, "class_name": "Zeros"}, "trainable": true, "moving_mean_initializer": {"config": {}, "class_name": "Zeros"}, "axis": -1}, "class_name": "BatchNormalization"}, {"config": {"rate": 0.4, "trainable": true, "name": "dropout_2"}, "class_name": "Dropout"}, {"config": {"kernel_constraint": null, "padding": "same", "kernel_regularizer": {"config": {"l1": 0.0, "l2": 0.0005000000237487257}, "class_name": "L1L2"}, "kernel_initializer": {"config": {"mode": "fan_avg", "scale": 1.0, "seed": null, "distribution": "uniform"}, "class_name": "VarianceScaling"}, "activation": "linear", "name": "conv2d_4", "bias_constraint": null, "activity_regularizer": null, "bias_regularizer": null, "use_bias": true, "dilation_rate": [1, 1], "strides": [1, 1], "filters": 128, "trainable": true, "data_format": "channels_last", "kernel_size": [3, 3], "bias_initializer": {"config": {}, "class_name": "Zeros"}}, "class_name": "Conv2D"}, {"config": {"trainable": true, "activation": "relu", "name": "activation_4"}, "class_name": "Activation"}, {"config": {"center": true, "gamma_regularizer": null, "epsilon": 0.001, "beta_constraint": null, "scale": true, "name": "batch_normalization_4", "momentum": 0.99, "gamma_initializer": {"config": {}, "class_name": "Ones"}, "moving_variance_initializer": {"config": {}, "class_name": "Ones"}, "beta_regularizer": null, "gamma_constraint": null, "beta_initializer": {"config": {}, "class_name": "Zeros"}, "trainable": true, "moving_mean_initializer": {"config": {}, "class_name": "Zeros"}, "axis": -1}, "class_name": "BatchNormalization"}, {"config": {"pool_size": [2, 2], "padding": "valid", "strides": [2, 2], "trainable": true, "data_format": "channels_last", "name": "max_pooling2d_2"}, "class_name": "MaxPooling2D"}, {"config": {"kernel_constraint": null, "padding": "same", "kernel_regularizer": {"config": {"l1": 0.0, "l2": 0.0005000000237487257}, "class_name": "L1L2"}, "kernel_initializer": {"config": {"mode": "fan_avg", "scale": 1.0, "seed": null, "distribution": "uniform"}, "class_name": "VarianceScaling"}, "activation": "linear", "name": "conv2d_5", "bias_constraint": null, "activity_regularizer": null, "bias_regularizer": null, "use_bias": true, "dilation_rate": [1, 1], "strides": [1, 1], "filters": 256, "trainable": true, "data_format": "channels_last", "kernel_size": [3, 3], "bias_initializer": {"config": {}, "class_name": "Zeros"}}, "class_name": "Conv2D"}, {"config": {"trainable": true, "activation": "relu", "name": "activation_5"}, "class_name": "Activation"}, {"config": {"center": true, "gamma_regularizer": null, "epsilon": 0.001, "beta_constraint": null, "scale": true, "name": "batch_normalization_5", "momentum": 0.99, "gamma_initializer": {"config": {}, "class_name": "Ones"}, "moving_variance_initializer": {"config": {}, "class_name": "Ones"}, "beta_regularizer": null, "gamma_constraint": null, "beta_initializer": {"config": {}, "class_name": "Zeros"}, "trainable": true, "moving_mean_initializer": {"config": {}, "class_name": "Zeros"}, "axis": -1}, "class_name": "BatchNormalization"}, {"config": {"rate": 0.4, "trainable": true, "name": "dropout_3"}, "class_name": "Dropout"}, {"config": {"kernel_constraint": null, "padding": "same", "kernel_regularizer": {"config": {"l1": 0.0, "l2": 0.0005000000237487257}, "class_name": "L1L2"}, "kernel_initializer": {"config": {"mode": "fan_avg", "scale": 1.0, "seed": null, "distribution": "uniform"}, "class_name": "VarianceScaling"}, "activation": "linear", "name": "conv2d_6", "bias_constraint": null, "activity_regularizer": null, "bias_regularizer": null, "use_bias": true, "dilation_rate": [1, 1], "strides": [1, 1], "filters": 256, "trainable": true, "data_format": "channels_last", "kernel_size": [3, 3], "bias_initializer": {"config": {}, "class_name": "Zeros"}}, "class_name": "Conv2D"}, {"config": {"trainable": true, "activation": "relu", "name": "activation_6"}, "class_name": "Activation"}, {"config": {"center": true, "gamma_regularizer": null, "epsilon": 0.001, "beta_constraint": null, "scale": true, "name": "batch_normalization_6", "momentum": 0.99, "gamma_initializer": {"config": {}, "class_name": "Ones"}, "moving_variance_initializer": {"config": {}, "class_name": "Ones"}, "beta_regularizer": null, "gamma_constraint": null, "beta_initializer": {"config": {}, "class_name": "Zeros"}, "trainable": true, "moving_mean_initializer": {"config": {}, "class_name": "Zeros"}, "axis": -1}, "class_name": "BatchNormalization"}, {"config": {"rate": 0.4, "trainable": true, "name": "dropout_4"}, "class_name": "Dropout"}, {"config": {"kernel_constraint": null, "padding": "same", "kernel_regularizer": {"config": {"l1": 0.0, "l2": 0.0005000000237487257}, "class_name": "L1L2"}, "kernel_initializer": {"config": {"mode": "fan_avg", "scale": 1.0, "seed": null, "distribution": "uniform"}, "class_name": "VarianceScaling"}, "activation": "linear", "name": "conv2d_7", "bias_constraint": null, "activity_regularizer": null, "bias_regularizer": null, "use_bias": true, "dilation_rate": [1, 1], "strides": [1, 1], "filters": 256, "trainable": true, "data_format": "channels_last", "kernel_size": [3, 3], "bias_initializer": {"config": {}, "class_name": "Zeros"}}, "class_name": "Conv2D"}, {"config": {"trainable": true, "activation": "relu", "name": "activation_7"}, "class_name": "Activation"}, {"config": {"center": true, "gamma_regularizer": null, "epsilon": 0.001, "beta_constraint": null, "scale": true, "name": "batch_normalization_7", "momentum": 0.99, "gamma_initializer": {"config": {}, "class_name": "Ones"}, "moving_variance_initializer": {"config": {}, "class_name": "Ones"}, "beta_regularizer": null, "gamma_constraint": null, "beta_initializer": {"config": {}, "class_name": "Zeros"}, "trainable": true, "moving_mean_initializer": {"config": {}, "class_name": "Zeros"}, "axis": -1}, "class_name": "BatchNormalization"}, {"config": {"pool_size": [2, 2], "padding": "valid", "strides": [2, 2], "trainable": true, "data_format": "channels_last", "name": "max_pooling2d_3"}, "class_name": "MaxPooling2D"}, {"config": {"kernel_constraint": null, "padding": "same", "kernel_regularizer": {"config": {"l1": 0.0, "l2": 0.0005000000237487257}, "class_name": "L1L2"}, "kernel_initializer": {"config": {"mode": "fan_avg", "scale": 1.0, "seed": null, "distribution": "uniform"}, "class_name": "VarianceScaling"}, "activation": "linear", "name": "conv2d_8", "bias_constraint": null, "activity_regularizer": null, "bias_regularizer": null, "use_bias": true, "dilation_rate": [1, 1], "strides": [1, 1], "filters": 512, "trainable": true, "data_format": "channels_last", "kernel_size": [3, 3], "bias_initializer": {"config": {}, "class_name": "Zeros"}}, "class_name": "Conv2D"}, {"config": {"trainable": true, "activation": "relu", "name": "activation_8"}, "class_name": "Activation"}, {"config": {"center": true, "gamma_regularizer": null, "epsilon": 0.001, "beta_constraint": null, "scale": true, "name": "batch_normalization_8", "momentum": 0.99, "gamma_initializer": {"config": {}, "class_name": "Ones"}, "moving_variance_initializer": {"config": {}, "class_name": "Ones"}, "beta_regularizer": null, "gamma_constraint": null, "beta_initializer": {"config": {}, "class_name": "Zeros"}, "trainable": true, "moving_mean_initializer": {"config": {}, "class_name": "Zeros"}, "axis": -1}, "class_name": "BatchNormalization"}, {"config": {"rate": 0.4, "trainable": true, "name": "dropout_5"}, "class_name": "Dropout"}, {"config": {"kernel_constraint": null, "padding": "same", "kernel_regularizer": {"config": {"l1": 0.0, "l2": 0.0005000000237487257}, "class_name": "L1L2"}, "kernel_initializer": {"config": {"mode": "fan_avg", "scale": 1.0, "seed": null, "distribution": "uniform"}, "class_name": "VarianceScaling"}, "activation": "linear", "name": "conv2d_9", "bias_constraint": null, "activity_regularizer": null, "bias_regularizer": null, "use_bias": true, "dilation_rate": [1, 1], "strides": [1, 1], "filters": 512, "trainable": true, "data_format": "channels_last", "kernel_size": [3, 3], "bias_initializer": {"config": {}, "class_name": "Zeros"}}, "class_name": "Conv2D"}, {"config": {"trainable": true, "activation": "relu", "name": "activation_9"}, "class_name": "Activation"}, {"config": {"center": true, "gamma_regularizer": null, "epsilon": 0.001, "beta_constraint": null, "scale": true, "name": "batch_normalization_9", "momentum": 0.99, "gamma_initializer": {"config": {}, "class_name": "Ones"}, "moving_variance_initializer": {"config": {}, "class_name": "Ones"}, "beta_regularizer": null, "gamma_constraint": null, "beta_initializer": {"config": {}, "class_name": "Zeros"}, "trainable": true, "moving_mean_initializer": {"config": {}, "class_name": "Zeros"}, "axis": -1}, "class_name": "BatchNormalization"}, {"config": {"rate": 0.4, "trainable": true, "name": "dropout_6"}, "class_name": "Dropout"}, {"config": {"kernel_constraint": null, "padding": "same", "kernel_regularizer": {"config": {"l1": 0.0, "l2": 0.0005000000237487257}, "class_name": "L1L2"}, "kernel_initializer": {"config": {"mode": "fan_avg", "scale": 1.0, "seed": null, "distribution": "uniform"}, "class_name": "VarianceScaling"}, "activation": "linear", "name": "conv2d_10", "bias_constraint": null, "activity_regularizer": null, "bias_regularizer": null, "use_bias": true, "dilation_rate": [1, 1], "strides": [1, 1], "filters": 512, "trainable": true, "data_format": "channels_last", "kernel_size": [3, 3], "bias_initializer": {"config": {}, "class_name": "Zeros"}}, "class_name": "Conv2D"}, {"config": {"trainable": true, "activation": "relu", "name": "activation_10"}, "class_name": "Activation"}, {"config": {"center": true, "gamma_regularizer": null, "epsilon": 0.001, "beta_constraint": null, "scale": true, "name": "batch_normalization_10", "momentum": 0.99, "gamma_initializer": {"config": {}, "class_name": "Ones"}, "moving_variance_initializer": {"config": {}, "class_name": "Ones"}, "beta_regularizer": null, "gamma_constraint": null, "beta_initializer": {"config": {}, "class_name": "Zeros"}, "trainable": true, "moving_mean_initializer": {"config": {}, "class_name": "Zeros"}, "axis": -1}, "class_name": "BatchNormalization"}, {"config": {"pool_size": [2, 2], "padding": "valid", "strides": [2, 2], "trainable": true, "data_format": "channels_last", "name": "max_pooling2d_4"}, "class_name": "MaxPooling2D"}, {"config": {"kernel_constraint": null, "padding": "same", "kernel_regularizer": {"config": {"l1": 0.0, "l2": 0.0005000000237487257}, "class_name": "L1L2"}, "kernel_initializer": {"config": {"mode": "fan_avg", "scale": 1.0, "seed": null, "distribution": "uniform"}, "class_name": "VarianceScaling"}, "activation": "linear", "name": "conv2d_11", "bias_constraint": null, "activity_regularizer": null, "bias_regularizer": null, "use_bias": true, "dilation_rate": [1, 1], "strides": [1, 1], "filters": 512, "trainable": true, "data_format": "channels_last", "kernel_size": [3, 3], "bias_initializer": {"config": {}, "class_name": "Zeros"}}, "class_name": "Conv2D"}, {"config": {"trainable": true, "activation": "relu", "name": "activation_11"}, "class_name": "Activation"}, {"config": {"center": true, "gamma_regularizer": null, "epsilon": 0.001, "beta_constraint": null, "scale": true, "name": "batch_normalization_11", "momentum": 0.99, "gamma_initializer": {"config": {}, "class_name": "Ones"}, "moving_variance_initializer": {"config": {}, "class_name": "Ones"}, "beta_regularizer": null, "gamma_constraint": null, "beta_initializer": {"config": {}, "class_name": "Zeros"}, "trainable": true, "moving_mean_initializer": {"config": {}, "class_name": "Zeros"}, "axis": -1}, "class_name": "BatchNormalization"}, {"config": {"rate": 0.4, "trainable": true, "name": "dropout_7"}, "class_name": "Dropout"}, {"config": {"kernel_constraint": null, "padding": "same", "kernel_regularizer": {"config": {"l1": 0.0, "l2": 0.0005000000237487257}, "class_name": "L1L2"}, "kernel_initializer": {"config": {"mode": "fan_avg", "scale": 1.0, "seed": null, "distribution": "uniform"}, "class_name": "VarianceScaling"}, "activation": "linear", "name": "conv2d_12", "bias_constraint": null, "activity_regularizer": null, "bias_regularizer": null, "use_bias": true, "dilation_rate": [1, 1], "strides": [1, 1], "filters": 512, "trainable": true, "data_format": "channels_last", "kernel_size": [3, 3], "bias_initializer": {"config": {}, "class_name": "Zeros"}}, "class_name": "Conv2D"}, {"config": {"trainable": true, "activation": "relu", "name": "activation_12"}, "class_name": "Activation"}, {"config": {"center": true, "gamma_regularizer": null, "epsilon": 0.001, "beta_constraint": null, "scale": true, "name": "batch_normalization_12", "momentum": 0.99, "gamma_initializer": {"config": {}, "class_name": "Ones"}, "moving_variance_initializer": {"config": {}, "class_name": "Ones"}, "beta_regularizer": null, "gamma_constraint": null, "beta_initializer": {"config": {}, "class_name": "Zeros"}, "trainable": true, "moving_mean_initializer": {"config": {}, "class_name": "Zeros"}, "axis": -1}, "class_name": "BatchNormalization"}, {"config": {"rate": 0.4, "trainable": true, "name": "dropout_8"}, "class_name": "Dropout"}, {"config": {"kernel_constraint": null, "padding": "same", "kernel_regularizer": {"config": {"l1": 0.0, "l2": 0.0005000000237487257}, "class_name": "L1L2"}, "kernel_initializer": {"config": {"mode": "fan_avg", "scale": 1.0, "seed": null, "distribution": "uniform"}, "class_name": "VarianceScaling"}, "activation": "linear", "name": "conv2d_13", "bias_constraint": null, "activity_regularizer": null, "bias_regularizer": null, "use_bias": true, "dilation_rate": [1, 1], "strides": [1, 1], "filters": 512, "trainable": true, "data_format": "channels_last", "kernel_size": [3, 3], "bias_initializer": {"config": {}, "class_name": "Zeros"}}, "class_name": "Conv2D"}, {"config": {"trainable": true, "activation": "relu", "name": "activation_13"}, "class_name": "Activation"}, {"config": {"center": true, "gamma_regularizer": null, "epsilon": 0.001, "beta_constraint": null, "scale": true, "name": "batch_normalization_13", "momentum": 0.99, "gamma_initializer": {"config": {}, "class_name": "Ones"}, "moving_variance_initializer": {"config": {}, "class_name": "Ones"}, "beta_regularizer": null, "gamma_constraint": null, "beta_initializer": {"config": {}, "class_name": "Zeros"}, "trainable": true, "moving_mean_initializer": {"config": {}, "class_name": "Zeros"}, "axis": -1}, "class_name": "BatchNormalization"}, {"config": {"pool_size": [2, 2], "padding": "valid", "strides": [2, 2], "trainable": true, "data_format": "channels_last", "name": "max_pooling2d_5"}, "class_name": "MaxPooling2D"}, {"config": {"rate": 0.5, "trainable": true, "name": "dropout_9"}, "class_name": "Dropout"}, {"config": {"trainable": true, "name": "flatten_1"}, "class_name": "Flatten"}, {"config": {"kernel_constraint": null, "bias_initializer": {"config": {}, "class_name": "Zeros"}, "kernel_regularizer": {"config": {"l1": 0.0, "l2": 0.0005000000237487257}, "class_name": "L1L2"}, "kernel_initializer": {"config": {"mode": "fan_avg", "scale": 1.0, "seed": null, "distribution": "uniform"}, "class_name": "VarianceScaling"}, "activation": "linear", "name": "dense_1", "bias_constraint": null, "use_bias": true, "activity_regularizer": null, "trainable": true, "units": 512, "bias_regularizer": null}, "class_name": "Dense"}, {"config": {"trainable": true, "activation": "relu", "name": "activation_14"}, "class_name": "Activation"}, {"config": {"center": true, "gamma_regularizer": null, "epsilon": 0.001, "beta_constraint": null, "scale": true, "name": "batch_normalization_14", "momentum": 0.99, "gamma_initializer": {"config": {}, "class_name": "Ones"}, "moving_variance_initializer": {"config": {}, "class_name": "Ones"}, "beta_regularizer": null, "gamma_constraint": null, "beta_initializer": {"config": {}, "class_name": "Zeros"}, "trainable": true, "moving_mean_initializer": {"config": {}, "class_name": "Zeros"}, "axis": -1}, "class_name": "BatchNormalization"}, {"config": {"rate": 0.5, "trainable": true, "name": "dropout_10"}, "class_name": "Dropout"}, {"config": {"kernel_constraint": null, "bias_initializer": {"config": {}, "class_name": "Zeros"}, "kernel_regularizer": null, "kernel_initializer": {"config": {"mode": "fan_avg", "scale": 1.0, "seed": null, "distribution": "uniform"}, "class_name": "VarianceScaling"}, "activation": "linear", "name": "dense_2", "bias_constraint": null, "use_bias": true, "activity_regularizer": null, "trainable": true, "units": 10, "bias_regularizer": null}, "class_name": "Dense"}, {"config": {"trainable": true, "activation": "softmax", "name": "activation_15"}, "class_name": "Activation"}], "class_name": "Sequential", "backend": "tensorflow", "keras_version": "2.0.4"}