{"backend": "tensorflow", "config": [{"config": {"filters": 64, "batch_input_shape": [null, 128, 128, 3], "bias_initializer": {"config": {}, "class_name": "Zeros"}, "name": "conv2d_1", "kernel_initializer": {"config": {"scale": 1.0, "mode": "fan_avg", "seed": null, "distribution": "uniform"}, "class_name": "VarianceScaling"}, "strides": [1, 1], "padding": "same", "use_bias": true, "activation": "linear", "dilation_rate": [1, 1], "activity_regularizer": null, "bias_regularizer": null, "kernel_regularizer": {"config": {"l1": 0.0, "l2": 0.0005000000237487257}, "class_name": "L1L2"}, "data_format": "channels_last", "kernel_size": [3, 3], "trainable": true, "dtype": "float32", "kernel_constraint": null, "bias_constraint": null}, "class_name": "Conv2D"}, {"config": {"name": "activation_1", "activation": "relu", "trainable": true}, "class_name": "Activation"}, {"config": {"gamma_initializer": {"config": {}, "class_name": "Ones"}, "epsilon": 0.001, "name": "batch_normalization_1", "beta_constraint": null, "scale": true, "axis": -1, "gamma_constraint": null, "beta_regularizer": null, "gamma_regularizer": null, "moving_mean_initializer": {"config": {}, "class_name": "Zeros"}, "moving_variance_initializer": {"config": {}, "class_name": "Ones"}, "trainable": true, "beta_initializer": {"config": {}, "class_name": "Zeros"}, "center": true, "momentum": 0.99}, "class_name": "BatchNormalization"}, {"config": {"name": "dropout_1", "rate": 0.3, "trainable": true}, "class_name": "Dropout"}, {"config": {"filters": 64, "bias_initializer": {"config": {}, "class_name": "Zeros"}, "name": "conv2d_2", "kernel_initializer": {"config": {"scale": 1.0, "mode": "fan_avg", "seed": null, "distribution": "uniform"}, "class_name": "VarianceScaling"}, "bias_regularizer": null, "padding": "same", "use_bias": true, "activation": "linear", "dilation_rate": [1, 1], "activity_regularizer": null, "strides": [1, 1], "kernel_regularizer": {"config": {"l1": 0.0, "l2": 0.0005000000237487257}, "class_name": "L1L2"}, "data_format": "channels_last", "kernel_size": [3, 3], "trainable": true, "kernel_constraint": null, "bias_constraint": null}, "class_name": "Conv2D"}, {"config": {"name": "activation_2", "activation": "relu", "trainable": true}, "class_name": "Activation"}, {"config": {"gamma_initializer": {"config": {}, "class_name": "Ones"}, "epsilon": 0.001, "name": "batch_normalization_2", "beta_constraint": null, "scale": true, "axis": -1, "gamma_constraint": null, "beta_regularizer": null, "gamma_regularizer": null, "moving_mean_initializer": {"config": {}, "class_name": "Zeros"}, "moving_variance_initializer": {"config": {}, "class_name": "Ones"}, "trainable": true, "beta_initializer": {"config": {}, "class_name": "Zeros"}, "center": true, "momentum": 0.99}, "class_name": "BatchNormalization"}, {"config": {"pool_size": [2, 2], "name": "max_pooling2d_1", "data_format": "channels_last", "trainable": true, "strides": [2, 2], "padding": "valid"}, "class_name": "MaxPooling2D"}, {"config": {"filters": 128, "bias_initializer": {"config": {}, "class_name": "Zeros"}, "name": "conv2d_3", "kernel_initializer": {"config": {"scale": 1.0, "mode": "fan_avg", "seed": null, "distribution": "uniform"}, "class_name": "VarianceScaling"}, "bias_regularizer": null, "padding": "same", "use_bias": true, "activation": "linear", "dilation_rate": [1, 1], "activity_regularizer": null, "strides": [1, 1], "kernel_regularizer": {"config": {"l1": 0.0, "l2": 0.0005000000237487257}, "class_name": "L1L2"}, "data_format": "channels_last", "kernel_size": [3, 3], "trainable": true, "kernel_constraint": null, "bias_constraint": null}, "class_name": "Conv2D"}, {"config": {"name": "activation_3", "activation": "relu", "trainable": true}, "class_name": "Activation"}, {"config": {"gamma_initializer": {"config": {}, "class_name": "Ones"}, "epsilon": 0.001, "name": "batch_normalization_3", "beta_constraint": null, "scale": true, "axis": -1, "gamma_constraint": null, "beta_regularizer": null, "gamma_regularizer": null, "moving_mean_initializer": {"config": {}, "class_name": "Zeros"}, "moving_variance_initializer": {"config": {}, "class_name": "Ones"}, "trainable": true, "beta_initializer": {"config": {}, "class_name": "Zeros"}, "center": true, "momentum": 0.99}, "class_name": "BatchNormalization"}, {"config": {"name": "dropout_2", "rate": 0.4, "trainable": true}, "class_name": "Dropout"}, {"config": {"filters": 128, "bias_initializer": {"config": {}, "class_name": "Zeros"}, "name": "conv2d_4", "kernel_initializer": {"config": {"scale": 1.0, "mode": "fan_avg", "seed": null, "distribution": "uniform"}, "class_name": "VarianceScaling"}, "bias_regularizer": null, "padding": "same", "use_bias": true, "activation": "linear", "dilation_rate": [1, 1], "activity_regularizer": null, "strides": [1, 1], "kernel_regularizer": {"config": {"l1": 0.0, "l2": 0.0005000000237487257}, "class_name": "L1L2"}, "data_format": "channels_last", "kernel_size": [3, 3], "trainable": true, "kernel_constraint": null, "bias_constraint": null}, "class_name": "Conv2D"}, {"config": {"name": "activation_4", "activation": "relu", "trainable": true}, "class_name": "Activation"}, {"config": {"gamma_initializer": {"config": {}, "class_name": "Ones"}, "epsilon": 0.001, "name": "batch_normalization_4", "beta_constraint": null, "scale": true, "axis": -1, "gamma_constraint": null, "beta_regularizer": null, "gamma_regularizer": null, "moving_mean_initializer": {"config": {}, "class_name": "Zeros"}, "moving_variance_initializer": {"config": {}, "class_name": "Ones"}, "trainable": true, "beta_initializer": {"config": {}, "class_name": "Zeros"}, "center": true, "momentum": 0.99}, "class_name": "BatchNormalization"}, {"config": {"pool_size": [2, 2], "name": "max_pooling2d_2", "data_format": "channels_last", "trainable": true, "strides": [2, 2], "padding": "valid"}, "class_name": "MaxPooling2D"}, {"config": {"filters": 256, "bias_initializer": {"config": {}, "class_name": "Zeros"}, "name": "conv2d_5", "kernel_initializer": {"config": {"scale": 1.0, "mode": "fan_avg", "seed": null, "distribution": "uniform"}, "class_name": "VarianceScaling"}, "bias_regularizer": null, "padding": "same", "use_bias": true, "activation": "linear", "dilation_rate": [1, 1], "activity_regularizer": null, "strides": [1, 1], "kernel_regularizer": {"config": {"l1": 0.0, "l2": 0.0005000000237487257}, "class_name": "L1L2"}, "data_format": "channels_last", "kernel_size": [3, 3], "trainable": true, "kernel_constraint": null, "bias_constraint": null}, "class_name": "Conv2D"}, {"config": {"name": "activation_5", "activation": "relu", "trainable": true}, "class_name": "Activation"}, {"config": {"gamma_initializer": {"config": {}, "class_name": "Ones"}, "epsilon": 0.001, "name": "batch_normalization_5", "beta_constraint": null, "scale": true, "axis": -1, "gamma_constraint": null, "beta_regularizer": null, "gamma_regularizer": null, "moving_mean_initializer": {"config": {}, "class_name": "Zeros"}, "moving_variance_initializer": {"config": {}, "class_name": "Ones"}, "trainable": true, "beta_initializer": {"config": {}, "class_name": "Zeros"}, "center": true, "momentum": 0.99}, "class_name": "BatchNormalization"}, {"config": {"name": "dropout_3", "rate": 0.4, "trainable": true}, "class_name": "Dropout"}, {"config": {"filters": 256, "bias_initializer": {"config": {}, "class_name": "Zeros"}, "name": "conv2d_6", "kernel_initializer": {"config": {"scale": 1.0, "mode": "fan_avg", "seed": null, "distribution": "uniform"}, "class_name": "VarianceScaling"}, "bias_regularizer": null, "padding": "same", "use_bias": true, "activation": "linear", "dilation_rate": [1, 1], "activity_regularizer": null, "strides": [1, 1], "kernel_regularizer": {"config": {"l1": 0.0, "l2": 0.0005000000237487257}, "class_name": "L1L2"}, "data_format": "channels_last", "kernel_size": [3, 3], "trainable": true, "kernel_constraint": null, "bias_constraint": null}, "class_name": "Conv2D"}, {"config": {"name": "activation_6", "activation": "relu", "trainable": true}, "class_name": "Activation"}, {"config": {"gamma_initializer": {"config": {}, "class_name": "Ones"}, "epsilon": 0.001, "name": "batch_normalization_6", "beta_constraint": null, "scale": true, "axis": -1, "gamma_constraint": null, "beta_regularizer": null, "gamma_regularizer": null, "moving_mean_initializer": {"config": {}, "class_name": "Zeros"}, "moving_variance_initializer": {"config": {}, "class_name": "Ones"}, "trainable": true, "beta_initializer": {"config": {}, "class_name": "Zeros"}, "center": true, "momentum": 0.99}, "class_name": "BatchNormalization"}, {"config": {"name": "dropout_4", "rate": 0.4, "trainable": true}, "class_name": "Dropout"}, {"config": {"filters": 256, "bias_initializer": {"config": {}, "class_name": "Zeros"}, "name": "conv2d_7", "kernel_initializer": {"config": {"scale": 1.0, "mode": "fan_avg", "seed": null, "distribution": "uniform"}, "class_name": "VarianceScaling"}, "bias_regularizer": null, "padding": "same", "use_bias": true, "activation": "linear", "dilation_rate": [1, 1], "activity_regularizer": null, "strides": [1, 1], "kernel_regularizer": {"config": {"l1": 0.0, "l2": 0.0005000000237487257}, "class_name": "L1L2"}, "data_format": "channels_last", "kernel_size": [3, 3], "trainable": true, "kernel_constraint": null, "bias_constraint": null}, "class_name": "Conv2D"}, {"config": {"name": "activation_7", "activation": "relu", "trainable": true}, "class_name": "Activation"}, {"config": {"gamma_initializer": {"config": {}, "class_name": "Ones"}, "epsilon": 0.001, "name": "batch_normalization_7", "beta_constraint": null, "scale": true, "axis": -1, "gamma_constraint": null, "beta_regularizer": null, "gamma_regularizer": null, "moving_mean_initializer": {"config": {}, "class_name": "Zeros"}, "moving_variance_initializer": {"config": {}, "class_name": "Ones"}, "trainable": true, "beta_initializer": {"config": {}, "class_name": "Zeros"}, "center": true, "momentum": 0.99}, "class_name": "BatchNormalization"}, {"config": {"pool_size": [2, 2], "name": "max_pooling2d_3", "data_format": "channels_last", "trainable": true, "strides": [2, 2], "padding": "valid"}, "class_name": "MaxPooling2D"}, {"config": {"filters": 512, "bias_initializer": {"config": {}, "class_name": "Zeros"}, "name": "conv2d_8", "kernel_initializer": {"config": {"scale": 1.0, "mode": "fan_avg", "seed": null, "distribution": "uniform"}, "class_name": "VarianceScaling"}, "bias_regularizer": null, "padding": "same", "use_bias": true, "activation": "linear", "dilation_rate": [1, 1], "activity_regularizer": null, "strides": [1, 1], "kernel_regularizer": {"config": {"l1": 0.0, "l2": 0.0005000000237487257}, "class_name": "L1L2"}, "data_format": "channels_last", "kernel_size": [3, 3], "trainable": true, "kernel_constraint": null, "bias_constraint": null}, "class_name": "Conv2D"}, {"config": {"name": "activation_8", "activation": "relu", "trainable": true}, "class_name": "Activation"}, {"config": {"gamma_initializer": {"config": {}, "class_name": "Ones"}, "epsilon": 0.001, "name": "batch_normalization_8", "beta_constraint": null, "scale": true, "axis": -1, "gamma_constraint": null, "beta_regularizer": null, "gamma_regularizer": null, "moving_mean_initializer": {"config": {}, "class_name": "Zeros"}, "moving_variance_initializer": {"config": {}, "class_name": "Ones"}, "trainable": true, "beta_initializer": {"config": {}, "class_name": "Zeros"}, "center": true, "momentum": 0.99}, "class_name": "BatchNormalization"}, {"config": {"name": "dropout_5", "rate": 0.4, "trainable": true}, "class_name": "Dropout"}, {"config": {"filters": 512, "bias_initializer": {"config": {}, "class_name": "Zeros"}, "name": "conv2d_9", "kernel_initializer": {"config": {"scale": 1.0, "mode": "fan_avg", "seed": null, "distribution": "uniform"}, "class_name": "VarianceScaling"}, "bias_regularizer": null, "padding": "same", "use_bias": true, "activation": "linear", "dilation_rate": [1, 1], "activity_regularizer": null, "strides": [1, 1], "kernel_regularizer": {"config": {"l1": 0.0, "l2": 0.0005000000237487257}, "class_name": "L1L2"}, "data_format": "channels_last", "kernel_size": [3, 3], "trainable": true, "kernel_constraint": null, "bias_constraint": null}, "class_name": "Conv2D"}, {"config": {"name": "activation_9", "activation": "relu", "trainable": true}, "class_name": "Activation"}, {"config": {"gamma_initializer": {"config": {}, "class_name": "Ones"}, "epsilon": 0.001, "name": "batch_normalization_9", "beta_constraint": null, "scale": true, "axis": -1, "gamma_constraint": null, "beta_regularizer": null, "gamma_regularizer": null, "moving_mean_initializer": {"config": {}, "class_name": "Zeros"}, "moving_variance_initializer": {"config": {}, "class_name": "Ones"}, "trainable": true, "beta_initializer": {"config": {}, "class_name": "Zeros"}, "center": true, "momentum": 0.99}, "class_name": "BatchNormalization"}, {"config": {"name": "dropout_6", "rate": 0.4, "trainable": true}, "class_name": "Dropout"}, {"config": {"filters": 512, "bias_initializer": {"config": {}, "class_name": "Zeros"}, "name": "conv2d_10", "kernel_initializer": {"config": {"scale": 1.0, "mode": "fan_avg", "seed": null, "distribution": "uniform"}, "class_name": "VarianceScaling"}, "bias_regularizer": null, "padding": "same", "use_bias": true, "activation": "linear", "dilation_rate": [1, 1], "activity_regularizer": null, "strides": [1, 1], "kernel_regularizer": {"config": {"l1": 0.0, "l2": 0.0005000000237487257}, "class_name": "L1L2"}, "data_format": "channels_last", "kernel_size": [3, 3], "trainable": true, "kernel_constraint": null, "bias_constraint": null}, "class_name": "Conv2D"}, {"config": {"name": "activation_10", "activation": "relu", "trainable": true}, "class_name": "Activation"}, {"config": {"gamma_initializer": {"config": {}, "class_name": "Ones"}, "epsilon": 0.001, "name": "batch_normalization_10", "beta_constraint": null, "scale": true, "axis": -1, "gamma_constraint": null, "beta_regularizer": null, "gamma_regularizer": null, "moving_mean_initializer": {"config": {}, "class_name": "Zeros"}, "moving_variance_initializer": {"config": {}, "class_name": "Ones"}, "trainable": true, "beta_initializer": {"config": {}, "class_name": "Zeros"}, "center": true, "momentum": 0.99}, "class_name": "BatchNormalization"}, {"config": {"pool_size": [2, 2], "name": "max_pooling2d_4", "data_format": "channels_last", "trainable": true, "strides": [2, 2], "padding": "valid"}, "class_name": "MaxPooling2D"}, {"config": {"filters": 512, "bias_initializer": {"config": {}, "class_name": "Zeros"}, "name": "conv2d_11", "kernel_initializer": {"config": {"scale": 1.0, "mode": "fan_avg", "seed": null, "distribution": "uniform"}, "class_name": "VarianceScaling"}, "bias_regularizer": null, "padding": "same", "use_bias": true, "activation": "linear", "dilation_rate": [1, 1], "activity_regularizer": null, "strides": [1, 1], "kernel_regularizer": {"config": {"l1": 0.0, "l2": 0.0005000000237487257}, "class_name": "L1L2"}, "data_format": "channels_last", "kernel_size": [3, 3], "trainable": true, "kernel_constraint": null, "bias_constraint": null}, "class_name": "Conv2D"}, {"config": {"name": "activation_11", "activation": "relu", "trainable": true}, "class_name": "Activation"}, {"config": {"gamma_initializer": {"config": {}, "class_name": "Ones"}, "epsilon": 0.001, "name": "batch_normalization_11", "beta_constraint": null, "scale": true, "axis": -1, "gamma_constraint": null, "beta_regularizer": null, "gamma_regularizer": null, "moving_mean_initializer": {"config": {}, "class_name": "Zeros"}, "moving_variance_initializer": {"config": {}, "class_name": "Ones"}, "trainable": true, "beta_initializer": {"config": {}, "class_name": "Zeros"}, "center": true, "momentum": 0.99}, "class_name": "BatchNormalization"}, {"config": {"name": "dropout_7", "rate": 0.4, "trainable": true}, "class_name": "Dropout"}, {"config": {"filters": 512, "bias_initializer": {"config": {}, "class_name": "Zeros"}, "name": "conv2d_12", "kernel_initializer": {"config": {"scale": 1.0, "mode": "fan_avg", "seed": null, "distribution": "uniform"}, "class_name": "VarianceScaling"}, "bias_regularizer": null, "padding": "same", "use_bias": true, "activation": "linear", "dilation_rate": [1, 1], "activity_regularizer": null, "strides": [1, 1], "kernel_regularizer": {"config": {"l1": 0.0, "l2": 0.0005000000237487257}, "class_name": "L1L2"}, "data_format": "channels_last", "kernel_size": [3, 3], "trainable": true, "kernel_constraint": null, "bias_constraint": null}, "class_name": "Conv2D"}, {"config": {"name": "activation_12", "activation": "relu", "trainable": true}, "class_name": "Activation"}, {"config": {"gamma_initializer": {"config": {}, "class_name": "Ones"}, "epsilon": 0.001, "name": "batch_normalization_12", "beta_constraint": null, "scale": true, "axis": -1, "gamma_constraint": null, "beta_regularizer": null, "gamma_regularizer": null, "moving_mean_initializer": {"config": {}, "class_name": "Zeros"}, "moving_variance_initializer": {"config": {}, "class_name": "Ones"}, "trainable": true, "beta_initializer": {"config": {}, "class_name": "Zeros"}, "center": true, "momentum": 0.99}, "class_name": "BatchNormalization"}, {"config": {"name": "dropout_8", "rate": 0.4, "trainable": true}, "class_name": "Dropout"}, {"config": {"filters": 512, "bias_initializer": {"config": {}, "class_name": "Zeros"}, "name": "conv2d_13", "kernel_initializer": {"config": {"scale": 1.0, "mode": "fan_avg", "seed": null, "distribution": "uniform"}, "class_name": "VarianceScaling"}, "bias_regularizer": null, "padding": "same", "use_bias": true, "activation": "linear", "dilation_rate": [1, 1], "activity_regularizer": null, "strides": [1, 1], "kernel_regularizer": {"config": {"l1": 0.0, "l2": 0.0005000000237487257}, "class_name": "L1L2"}, "data_format": "channels_last", "kernel_size": [3, 3], "trainable": true, "kernel_constraint": null, "bias_constraint": null}, "class_name": "Conv2D"}, {"config": {"name": "activation_13", "activation": "relu", "trainable": true}, "class_name": "Activation"}, {"config": {"gamma_initializer": {"config": {}, "class_name": "Ones"}, "epsilon": 0.001, "name": "batch_normalization_13", "beta_constraint": null, "scale": true, "axis": -1, "gamma_constraint": null, "beta_regularizer": null, "gamma_regularizer": null, "moving_mean_initializer": {"config": {}, "class_name": "Zeros"}, "moving_variance_initializer": {"config": {}, "class_name": "Ones"}, "trainable": true, "beta_initializer": {"config": {}, "class_name": "Zeros"}, "center": true, "momentum": 0.99}, "class_name": "BatchNormalization"}, {"config": {"pool_size": [2, 2], "name": "max_pooling2d_5", "data_format": "channels_last", "trainable": true, "strides": [2, 2], "padding": "valid"}, "class_name": "MaxPooling2D"}, {"config": {"name": "dropout_9", "rate": 0.5, "trainable": true}, "class_name": "Dropout"}, {"config": {"name": "flatten_1", "trainable": true}, "class_name": "Flatten"}, {"config": {"units": 512, "bias_initializer": {"config": {}, "class_name": "Zeros"}, "name": "dense_1", "kernel_initializer": {"config": {"scale": 1.0, "mode": "fan_avg", "seed": null, "distribution": "uniform"}, "class_name": "VarianceScaling"}, "bias_regularizer": null, "use_bias": true, "activation": "linear", "activity_regularizer": null, "kernel_regularizer": {"config": {"l1": 0.0, "l2": 0.0005000000237487257}, "class_name": "L1L2"}, "trainable": true, "kernel_constraint": null, "bias_constraint": null}, "class_name": "Dense"}, {"config": {"name": "activation_14", "activation": "relu", "trainable": true}, "class_name": "Activation"}, {"config": {"gamma_initializer": {"config": {}, "class_name": "Ones"}, "epsilon": 0.001, "name": "batch_normalization_14", "beta_constraint": null, "scale": true, "axis": -1, "gamma_constraint": null, "beta_regularizer": null, "gamma_regularizer": null, "moving_mean_initializer": {"config": {}, "class_name": "Zeros"}, "moving_variance_initializer": {"config": {}, "class_name": "Ones"}, "trainable": true, "beta_initializer": {"config": {}, "class_name": "Zeros"}, "center": true, "momentum": 0.99}, "class_name": "BatchNormalization"}, {"config": {"name": "dropout_10", "rate": 0.5, "trainable": true}, "class_name": "Dropout"}, {"config": {"units": 101, "bias_initializer": {"config": {}, "class_name": "Zeros"}, "name": "dense_2", "kernel_initializer": {"config": {"scale": 1.0, "mode": "fan_avg", "seed": null, "distribution": "uniform"}, "class_name": "VarianceScaling"}, "bias_regularizer": null, "use_bias": true, "activation": "linear", "activity_regularizer": null, "kernel_regularizer": null, "trainable": true, "kernel_constraint": null, "bias_constraint": null}, "class_name": "Dense"}, {"config": {"name": "activation_15", "activation": "softmax", "trainable": true}, "class_name": "Activation"}], "keras_version": "2.0.4", "class_name": "Sequential"}